NW/savepoint1238.pth (torch, 20225 bytes, 9 tensors)

gru.weight_ih_l0 f4 [24, 132]
-0.355499 -0.2281936 -0.30988783 0.14768736 0.32180515 0.2742952 -0.44506347 0.071397096
0.31424147 0.23691165 -0.6767737 -0.3857617 -0.2929336 0.3018276 -0.30138648 -0.10645045
0.25434574 0.38700646 0.07087213 -0.066682376 -0.29619676 0.22727971 -0.3044912 0.13681361
-0.19766808 0.13638172 0.02466881 -0.31424293 -0.3030299 0.33419302 -0.81260717 0.14680469
0.19754513 0.16377926 0.056884874 0.104265094 -0.29467517 -0.07306154 -0.48340505 -0.3544135
-0.346829 0.2422733 0.04830102 -0.2117849 0.023628457 0.018250614 -0.7051757 -0.095003754
0.20860563 0.20914735 0.010066988 -0.12290838 0.076069064 0.6843471 -1.433957 -0.6620878
-0.044911887 0.015048432 0.20625083 0.4725522 -0.22139494 0.89386815 -1.5767844 -0.6213349
-0.44494164 0.203381 -0.17962144 0.4290358 -0.17316402 0.73287064 -1.7107613 -0.48906928
-0.3704153 0.689813 -0.21023016 -0.052874934 -0.21350293 0.41797963 -1.3930765 -0.6994491
0.09662354 0.9423538 -0.37150282 0.32343328 0.22904956 0.81400305 -1.9014548 -0.4084734
-0.50631434 0.8828749 -0.35943618 0.10953256 0.31410652 0.2845567 0.10023077 -0.24861744
0.18933003 0.10328255 -0.028880918 -0.5284434 0.36878031 -0.16499397 -1.5698814 -0.67437756
-0.40626687 -0.43851662 -1.9548755 0.45153415 -0.11331453 -0.328524 -0.9439853 -0.15985335
-0.035782307 -0.45449987 -2.325553 0.37611347 0.22043286 -0.61574376 -0.6987877 0.33671173
-0.4181184 -0.6687382 -1.9579293 -0.2574359 0.55703187 -0.45185953 -0.9520798 -0.23481838
-0.04914232 -0.5333635 -1.8581502 0.2158297 -0.4612941 0.23729567 -0.1954811 -0.33680123
-0.08226044 0.16693673 -0.27841935 -0.4928855 -0.0091161225 -0.06336737 -0.5257543 -0.15474275
0.009106968 0.046163704 -0.34465396 0.12988655 -0.26559466 0.1241153 0.108096436 0.1519276
-0.18882367 -0.1664367 -0.19816785 -0.25673828 -0.50887346 -0.23148607 -0.115135424 0.09421467
-0.06218986 0.046599932 -0.17431125 -0.12791869 -0.09665969 -0.30750528 -0.32827815 -0.30988666
-0.20359738 0.23930615 -0.19604936 0.06260394 -0.24838965 0.094477475 -0.42777258 0.06403514
0.10789931 -0.06901962 -0.7213485 -0.2288229 -0.68398166 0.32075572 -0.14977455 -0.4900972
-0.6002597 0.61755323 -0.4084372 1.2887412 -0.24093668 0.1245516 -0.12463335 0.50308704
-0.12327184 0.9667377 -1.271641 0.83072245 -0.35212326 0.25205308 -1.0076439 -0.6173012
-0.61967534 1.2377275 -1.1038815 0.38150543 0.022751 1.0379874 -0.49200493 -0.7419495
-0.66754675 0.9017024 -1.0471542 0.73946095 -0.2502609 0.94867635 -0.7314049 -0.7677406
0.025377462 1.1018535 -1.3281126 0.6515235 -0.33141902 0.70175546 -1.0162667 -0.552451
-0.31404522 0.15139022 -0.7534794 0.14724009 -0.23813963 0.2573332 0.788268 0.07939644
-0.16460028 0.29824975 -2.37298 0.07178699 -0.17005701 0.1611653 -1.3344461 -0.24182364
-0.5772909 -0.025895864 -2.0199232 0.06648775 -0.27283147 0.2672152 -1.4325066 -0.49944034
-0.6144481 -0.15213482 -1.4280807 -0.50047714 -0.16232748 -0.3322165 -1.1926074 -0.31484973
00000000: f703 b6be 95ab 69be 9ea9 9ebe 5b3b 173e
00000010: a5c3 a43e 6c70 8c3e 5cdf e3be a438 923d
00000020: 42e4 a03e f898 723e 0b41 2dbf 8f82 c5be
00000030: 65fb 95be 2689 9a3e 544f 9abe b202 dabd
00000040: 9b39 823e b625 c63e 6825 913d c590 88bd
00000050: 1aa7 97be 03bc 683e 45e6 9bbe de18 0c3e
00000060: 8069 4abe a6a7 0b3e 3f16 ca3c 73e4 a0be
00000070: bc26 9bbe 591b ab3e 0607 50bf f853 163e
00000080: 4549 4a3e c0b5 273e 1d00 693d f088 d53d
00000090: aadf 96be 4aa1 95bd de80 f7be b075 b5be
000000a0: 9293 b1be 7e16 783e 4ad7 453d 24de 58be
000000b0: 7790 c13c 5082 953c 6586 34bf 5491 c2bd
000000c0: b79c 553e b92a 563e 02f0 243c 64b7 fbbd
000000d0: 19ca 9b3d 5f31 2f3f e78b b7bf 967e 29bf
000000e0: 87f5 37bd b38d 763c 6b33 533e 5df2 f13e
000000f0: 5bb5 62be 8bd4 643f 12d4 c9bf ce0f 1fbf
00000100: 64cf e3be 1c43 503e afee 37be 95aa db3e
00000110: e951 31be 699d 3b3f 3afa dabf 4a67 fabe
00000120: 13a7 bdbe 9697 303f 9346 57be 6393 58bd
00000130: 83a0 5abe 6d01 d63e 5550 b2bf 190f 33bf
00000140: 90e2 c53d 193e 713f 9e35 bebe 0c99 a53e
00000150: f88b 6a3e 8162 503f df62 f3bf 6d23 d1be
00000160: d19d 01bf 1704 623f 0508 b8be 9b52 e03d
00000170: 92d2 a03e 6ab1 913e ca45 cd3d 9295 7ebe
00000180: bbdf 413e cd85 d33d ad97 ecbc 1148 07bf
00000190: c6d0 bc3e 2ef4 28be e0f1 c8bf 02a4 2cbf
000001a0: 3602 d0be 4085 e0be 5c39 fabf 7c2f e73e
000001b0: 7311 e8bd 4c34 a8be 05a9 71bf 99b0 23be
000001c0: 7890 12bd 35b4 e8be dcd5 14c0 f291 c03e
000001d0: 27b9 613e 62a1 1dbf c0e3 32bf 7b65 ac3e
000001e0: 9d13 d6be 6d32 2bbf 6d9d fabf a3ce 83be
000001f0: a499 0e3f 225a e7be 80bb 73bf 3b74 70be
00000200: 7549 49bd 838a 08bf ded7 edbf 7602 5d3e
00000210: be2e ecbe a3fd 723e 332c 48be 3671 acbe
00000220: 2978 a8bd 76f1 2a3e fb8c 8ebe 7d5b fcbe
00000230: ca5b 15bc c0c6 81bd d597 06bf e274 1ebe
00000240: 6435 153c 2716 3d3d 7c76 b0be fb00 053e
00000250: 06fc 87be 2a30 fe3d aa61 dd3d e992 1b3e
00000260: fe5a 41be 626e 2abe 83ec 4abe 3373 83be
00000270: 8845 02bf af0a 6dbe 1fcc ebbd 9ff3 c03d
00000280: cbba 7ebd 92df 3e3d a67e 32be 1efd 02be
00000290: 84f5 c5bd 5571 9dbe 1314 a8be 77a9 9ebe
000002a0: d57b 50be ac0c 753e 2ac1 48be 7f36 803d
000002b0: db59 7ebe 687d c13d 0205 dbbe db24 833d
000002c0: 50fa dc3d 295a 8dbd 4caa 38bf 8d50 6abe
000002d0: 6c19 2fbf 183a a43e 805e 19be 05ee fabe
000002e0: 9faa 19bf f817 1e3f ae1e d1be 79f5 a43f
000002f0: 1bb8 76be e914 ff3d c53f ffbd 50ca 003f
00000300: f275 fcbd 1f7c 773f 22c5 a2bf 3aaa 543f
00000310: 8049 b4be 1a0d 813e 7afa 80bf 7407 1ebf
00000320: 0ba3 1ebf db6d 9e3f fd4b 8dbf ae54 c33e
00000330: 4e60 ba3c c5dc 843f 12e8 fbbe 67f0 3dbf
00000340: 58e4 2abf f8d5 663f 2609 86bf 504d 3d3f
00000350: 3222 80be 74dc 723f 5a3d 3bbf a68a 44bf
00000360: 65e4 cf3c 8909 8d3f 98ff a9bf 3eca 263f
00000370: c1af a9be 3fa6 333f 0715 82bf 6e6d 0dbf
00000380: 89ca a0be 0a06 1b3e 07e4 40bf 1bc6 163e
00000390: e0da 73be 2dc1 833e efcb 493f 9a9a a23d
000003a0: fa8c 28be 31b4 983e e8de 17c0 0f05 933d
000003b0: 6d23 2ebe 8408 253e 21cf aabf 9ea0 77be
000003c0: 56c9 13bf 9023 d4bc 6c46 01c0 bb2a 883d
000003d0: 91b0 8bbe 6ed0 883e 605c b7bf a5b6 ffbe
000003e0: 784c 1dbf 3bc9 1bbe 59cb b6bf 451f 00bf
000003f0: 2d39 26be 4818 aabe 5ca7 98bf fc33 a1be

gru.weight_hh_l0 f4 [24, 8]
0.28568506 0.16660833 -0.33593357 -0.651807 -0.44316795 0.017894333 0.6356425 -1.4041317
0.03830095 -0.84045637 0.5964965 -0.03485438 -0.14962336 -1.1506048 -0.98065597 0.9198044
0.5528419 -0.43178836 -0.5763481 -0.89847916 0.5235908 0.5180774 0.2684668 0.50278306
-0.7953354 -0.13091937 -0.18757859 -0.9256753 -0.35151717 -0.6449725 -0.04204313 0.66038626
-0.66699827 -0.019671042 -0.4765387 -0.16406354 0.3364789 0.28995237 0.6027932 0.092302255
0.3848537 -0.036762547 0.01379194 -0.15134354 -0.2712644 -0.6261112 0.813938 -0.22773536
-0.8627267 -1.7437754 -0.57576084 0.3779855 0.67543805 -0.71268135 -1.0102789 0.51735276
0.62990415 0.8681808 -0.4170495 -0.24451675 -0.22398145 -0.59691423 -0.87307394 -0.6163909
-1.102252 0.15691458 0.87737745 -0.82402444 1.3327103 0.9502938 0.1615402 -0.20612049
0.078570105 -2.4844918 -0.5291835 -0.3429404 0.5129274 -0.44482085 -0.35557416 0.9321129
-0.09262567 -1.4504404 -1.0909355 -0.70640576 1.9635004 -1.3052925 -0.6648695 1.3902667
0.77636737 0.78614426 1.0543425 0.053788316 0.012192875 1.4448202 0.6800432 -0.19052228
-0.9150013 -0.7072515 -0.021166071 -0.03591945 -1.0916884 0.4761553 0.673348 -0.18874776
-1.4159814 0.32690617 -0.46081114 -0.34272504 0.65015244 1.364586 -0.6180752 0.04583122
0.23603036 -0.54603606 0.24842803 -0.39627522 0.2311867 0.0030939667 0.60311794 -0.29699942
-0.6525199 1.1944218 -0.4383682 -1.1029607 -0.40682837 -0.12475862 0.7294525 -0.7432104
0.22259633 1.2775451 1.0125209 -0.14210057 0.07447566 0.23934221 -0.28592452 0.46148294
-0.9385436 -0.1694585 0.50558126 -1.0879971 0.24182509 -1.1991472 0.41633302 0.7896363
1.2514745 0.60976124 -0.15433085 -0.10100505 0.29450393 1.0532774 -0.21289788 0.59487104
1.6939745 0.31170037 -0.650801 0.2686654 0.42192557 1.0840311 -0.6113864 0.24347378
0.57915 0.98756456 0.47720167 -0.77801305 0.31336972 0.63135046 0.22172916 0.12785107
-1.0854236 -0.18358357 -0.6338442 1.2654185 -0.5175194 -0.26123112 0.21569967 -0.24835421
-0.01543597 0.8780977 -0.15309477 0.25104335 -0.61946106 0.07573269 0.53200746 -0.46420726
-0.059266884 -0.82316154 -0.92943615 -0.6829281 -0.027399022 0.07902447 -0.48578328 0.75642836
00000000: 5045 923e 609b 2a3e 7cff abbe d3dc 26bf
00000010: e9e6 e2be 2397 923c 78b9 223f 96ba b3bf
00000020: 75e1 1c3d 2628 57bf ffb3 183f 77c3 0ebd
00000030: de36 19be 0547 93bf 450c 7bbf 4d78 6b3f
00000040: 0c87 0d3f 5d13 ddbe 8d8b 13bf bb02 66bf
00000050: 0c0a 063f b8a0 043f 7b74 893e 64b6 003f
00000060: 1a9b 4bbf ba0f 06be 9a14 40be 0ef9 6cbf
00000070: 0ffa b3be eb1c 25bf 6b35 2cbd 130f 293f
00000080: 66c0 2abf 2a25 a1bc e1fc f3be 4600 28be
00000090: f646 ac3e a374 943e a850 1a3f f708 bd3d
000000a0: 8b0b c53e 5394 16bd 97f7 613c cdf9 1abe
000000b0: 2be3 8abe d348 20bf 3e5e 503f 7533 69be
000000c0: a8db 5cbf 0834 dfbf 1065 13bf 5187 c13e
000000d0: 82e9 2c3f 4972 36bf d250 81bf 3b71 043f
000000e0: 6641 213f 1941 5e3f 8387 d5be 9962 7abe
000000f0: 655b 65be 5fcf 18bf c681 5fbf cbcb 1dbf
00000100: 9816 8dbf 37ae 203e cf9b 603f 44f3 52bf
00000110: 4096 aa3f 7446 733f cb6a 253e 4011 53be
00000120: 5de9 a03d ea01 1fc0 9278 07bf e295 afbe
00000130: 364f 033f 8fbf e3be d10d b6be f39e 6e3f
00000140: 87b2 bdbd 08a8 b9bf c6a3 8bbf 02d7 34bf
00000150: fb53 fb3f d313 a7bf e334 2abf 42f4 b13f
00000160: 03c0 463f c040 493f b2f4 863f 2351 5c3d
00000170: a0c4 473c deef b83f 5017 2e3f 4618 43be
00000180: 863d 6abf 6f0e 35bf 7864 adbc 4620 13bd
00000190: 72bc 8bbf a1ca f33e 8960 2c3f 1847 41be
000001a0: e13e b5bf 3f60 a73e 70ef ebbe a879 afbe
000001b0: 6470 263f c1aa ae3f 2d3a 1ebf 84b9 3b3d
000001c0: f1b1 713e 05c9 0bbf eb63 7e3e 96e4 cabe
000001d0: 35bc 6c3e 26c4 4a3b f065 1a3f 4f10 98be
000001e0: 8b0b 27bf d0e2 983f cc71 e0be d12d 8dbf
000001f0: cf4b d0be 7381 ffbd 66bd 3a3f 0943 3ebf
00000200: 4bf0 633e 9986 a33f 499a 813f d082 11be
00000210: b286 983d 2016 753e b364 92be 7e47 ec3e
00000220: 6544 70bf 8786 2dbe c66d 013f 7d43 8bbf
00000230: ffa0 773e a87d 99bf 9a29 d53e 9b25 4a3f
00000240: 5130 a03f 5019 1c3f e808 1ebe bcdb cebd
00000250: 38c9 963e cbd1 863f e701 5abe 7849 183f
00000260: 28d4 d83f 3197 9f3e e59a 26bf 838e 893e
00000270: a106 d83e 88c1 8a3f d283 1cbf 3151 793e
00000280: 2d43 143f 08d1 7c3f c753 f43e dd2b 47bf
00000290: ff71 a03e 2fa0 213f f80c 633e 64eb 023e
000002a0: 29ef 8abf 55fd 3bbe 9d43 22bf 3cf9 a13f
000002b0: 277c 04bf 16c0 85be 60e0 5c3e 9150 7ebe
000002c0: 27e7 7cbc 03cb 603f e0c4 1cbe c188 803e
000002d0: 0095 1ebf be19 9b3d a431 083f 93ac edbe
000002e0: d5c1 72bd b7ba 52bf 87ef 6dbf 60d4 2ebf
000002f0: ea73 e0bc 95d7 a13d 96b8 f8be 4aa5 413f

gru.bias_ih_l0 f4 [24]
0.18237522 0.009410177 0.29170224 0.106076464 0.29953888 -0.30678272 -0.083737075 -0.715067
0.51744115 0.08724315 0.1301531 1.2607528 0.27661493 0.57676345 0.05378318 -0.10598805
0.112046 -0.39104748 -0.20716742 -0.17392598 0.24317195 0.36229414 -0.008481898 0.07697414
00000000: 92c0 3a3e 252d 1a3c ff59 953e 9e3e d93d
00000010: 295d 993e a012 9dbe 587e abbd a20e 37bf
00000020: 0677 043f 89ac b23d db46 053e 5960 a13f
00000030: 79a0 8d3e c5a6 133f c04b 5c3d 4310 d9bd
00000040: 6078 e53d 6037 c8be b223 54be a719 32be
00000050: 1102 793e 9e7e b93e a9f7 0abc 9ea4 9d3d

gru.bias_hh_l0 f4 [24]
-0.12010228 0.26201555 -0.059579447 0.03481038 0.07809053 -0.16463986 0.028091522 -0.535069
0.28083187 0.17750418 0.12252923 0.92802024 0.41035703 0.9168705 0.15549594 0.025648132
-0.048811305 0.08711453 0.47528353 0.9679613 0.5623898 -0.036109436 -0.32859814 0.09253945
00000000: 2ff8 f5bd e726 863e 9409 74bd 5495 0e3d
00000010: eeed 9f3d 5a97 28be 3120 e63c 48fa 08bf
00000020: 32c9 8f3e a8c3 353e 9bf0 fa3d bc92 6d3f
00000030: 511a d23e 06b8 6a3f 543a 1f3e 081c d23c
00000040: 5dee 47bd 1a69 b23d 5d58 f33e 50cc 773f
00000050: c7f8 0f3f 7de7 13bd 043e a8be 5385 bd3d

gru.weight_ih_l1 f4 [24, 8]
-0.42244583 -0.11789791 -0.05172266 -0.3414021 -0.31422356 1.1449356 0.33951396 -0.74712807
-1.3598981 0.2977694 1.1104342 -1.1049193 -0.19090731 0.82150185 -0.033056285 -0.3059989
0.25947648 -1.0503994 -1.0022669 1.5694846 0.32674047 -0.16058226 0.06549178 0.21204893
-0.27319017 -1.5448563 0.2098875 1.1526589 -0.5595343 -0.5536757 0.40890482 -0.91859335
0.4048981 -0.1298113 0.1786687 0.62644243 0.83230424 -1.2216878 -0.88448983 0.8322725
0.21129742 -1.4376773 0.037864227 1.4927646 0.38311994 0.5796866 -0.28223225 -0.07721451
0.018990647 -0.45884335 0.12863408 0.5583041 0.17931604 0.5253744 -1.2354673 -0.2074062
0.22628173 -1.1804237 -1.5407251 0.15690179 -0.6992186 -0.04567204 -0.3147813 -0.7685617
0.3116923 -0.07317562 0.1673323 -0.4751749 0.08601084 0.49443287 0.34053212 -0.1264062
-0.0273994 0.16682883 0.5259778 -1.1310471 -0.00011323128 1.419748 0.11252556 -0.18099028
-0.34867257 -0.08947238 -0.94189024 -1.3112016 -2.8516707 -0.41413757 -0.38246742 -1.0517602
0.6586935 -0.9173757 -1.7675766 -0.44990414 1.1033561 -0.037084796 -0.6933214 -1.4762096
-0.5206017 -0.81597954 -1.7770463 -0.5466212 -0.032094207 0.9272951 -0.50095344 -1.6671847
0.48786932 0.61555475 -0.98973113 0.43760595 0.4122018 0.45601872 -0.9120362 -1.5775313
0.570951 0.3808594 0.14511469 0.7063857 -0.5787825 -0.20133834 -0.33564386 -0.018833943
-1.0431733 -0.97818077 -1.1490158 -1.1997427 -0.37166747 -0.5365478 -1.3744316 0.23442692
0.0013260635 -0.062257104 -0.05111417 0.23872979 -0.12818012 -0.16837436 0.12543005 0.0029922652
0.22733535 0.12828362 -0.0657323 -0.45616823 0.118907936 0.37348467 0.049455773 -0.36808094
0.13117668 -0.086998455 0.23623432 -0.08816035 0.087135404 0.051815126 0.028510816 -0.1364748
0.3322699 -0.43089914 -0.23903993 -0.06690431 -0.070277326 0.41236714 0.7501827 -0.038400363
0.36765626 0.07935101 -0.02360355 0.051059447 -0.3402815 -0.147236 0.2950213 0.29083905
0.40378228 -0.07916997 -0.0103549 0.31597662 -0.4421196 -0.17351188 0.36138162 0.0010292771
0.8517639 0.2452518 0.07733572 -0.37256423 -0.28435913 -0.56323963 0.6466816 0.42416838
-0.44316125 -0.097198926 0.53491944 0.19541502 0.03195478 0.24743503 -0.7635117 -0.512355
00000000: d24a d8be 7674 f1bd 24db 53bd 42cc aebe
00000010: e9e1 a0be 408d 923f c6d4 ad3e c943 3fbf
00000020: 2411 aebf 3b75 983e b522 8e3f ff6d 8dbf
00000030: 357d 43be f24d 523f 0766 07bd e3ab 9cbe
00000040: 1ada 843e 7d73 86bf 484a 80bf dfe4 c83f
00000050: 874a a73e ad6f 24be 8e20 863d 5b23 593e
00000060: 95df 8bbe dabd c5bf c0ec 563e 548a 933f
00000070: a43d 0fbf b1bd 0dbf f95b d13e ef28 6bbf
00000080: ce4e cf3e 41ed 04be edf4 363e 885e 203f
00000090: e411 553f 4460 9cbf ed6d 62bf d00f 553f
000000a0: 5a5e 583e cf05 b8bf 8517 1b3d e912 bf3f
000000b0: 4c28 c43e 5766 143f bf80 90be a422 9ebd
000000c0: 4692 9b3c 84ed eabe a7b8 033e 04ed 0e3f
000000d0: a09e 373e f07e 063f cb23 9ebf 4a62 54be
000000e0: 66b6 673e 2018 97bf 7b36 c5bf ddaa 203e
000000f0: fdff 32bf 9b12 3bbd 042b a1be 76c0 44bf
00000100: 2296 9f3e 19dd 95bd 2959 2b3e 204a f3be
00000110: 7426 b03d 4e26 fd3e 3a5a ae3e a070 01be
00000120: b574 e0bc 2dd5 2a3e 7ba6 063f 27c6 90bf
00000130: 9576 edb8 4dba b53f cd73 e63d 8455 39be
00000140: 3685 b2be 4c3d b7bd b81f 71bf 74d5 a7bf
00000150: c681 36c0 d709 d4be c5d2 c3be 14a0 86bf
00000160: 23a0 283f 22d9 6abf f33f e2bf d659 e6be
00000170: c63a 8d3f 3ae6 17bd 837d 31bf 70f4 bcbf
00000180: 2746 05bf 09e4 50bf 4176 e3bf 5eef 0bbf
00000190: 3775 03bd 3663 6d3f 7c3e 00bf 4f66 d5bf
000001a0: 02ca f93e ff94 1d3f 055f 7dbf e30d e03e
000001b0: 1d0c d33e 497b e93e 347b 69bf 8cec c9bf
000001c0: d829 123f 0100 c33e f298 143e b1d5 343f
000001d0: 172b 14bf a32b 4ebe 83d9 abbe a449 9abc
000001e0: b486 85bf 0e6a 7abf f312 93bf 2b91 99bf
000001f0: 334b bebe 325b 09bf 60ed afbf 9c0d 703e
00000200: 4fcf ad3a 4e01 7fbd 185d 51bd 9575 743e
00000210: a641 03be 546a 2cbe bc70 003e e119 443b
00000220: 99ca 683e c85c 033e a89e 86bd e28e e9be
00000230: 0186 f33d 6239 bf3e 2392 4a3d 1b75 bcbe
00000240: 2e53 063e 3f2c b2bd 69e7 713e 6a8d b4bd
00000250: 0c74 b23d 193c 543d 848f e93c 0dc0 0bbe
00000260: 481f aa3e d09e dcbe e2c6 74be 2005 89bd
00000270: 8fed 8fbd c921 d33e f90b 403f b349 1dbd
00000280: 713d bc3e c882 a23d 3b5c c1bc b623 513d
00000290: 6039 aebe 09c5 16be 080d 973e dbe8 943e
000002a0: 8dbc ce3e dd23 a2bd 99a7 29bc b0c7 a13e
000002b0: 805d e2be 19ad 31be 0307 b93e cfe8 863a
000002c0: 330d 5a3f 4a23 7b3e 3162 9e3d bdc0 bebe
000002d0: 8597 91be 7930 10bf ed8c 253f 992c d93e
000002e0: 08e6 e2be 3b10 c7bd 7bf0 083f e01a 483e
000002f0: 04e3 023d 9c5f 7d3e 8175 43bf b329 03bf

gru.weight_hh_l1 f4 [24, 8]
-0.21974063 0.696447 1.2711008 -0.49684456 -1.5510137 -0.68985033 -0.17756766 -0.20359255
0.07062337 -1.1020708 0.8142857 -0.5003459 -0.5482426 -0.5386392 0.5051801 -0.45316526
0.5086318 0.7638443 -2.0190556 1.1557174 -0.4621973 -0.22604461 -0.5386437 0.89810234
0.4787871 0.82468957 -1.103901 1.1045934 0.20640737 0.56856024 0.44900492 0.112940036
0.31587392 -0.44087777 -0.321284 0.6499008 1.0364485 1.6891938 -0.11223471 -0.18547887
0.0922997 0.01788698 0.27010146 0.25479558 -0.62020874 -1.3650091 -0.7860182 0.63697034
-0.827833 -0.3140501 -0.21106276 0.5140778 -1.4112194 -0.54552644 -0.45070416 -0.18219468
-0.35634765 0.9887878 0.7856634 0.19827008 -0.8117587 0.57661134 -0.12720308 -0.27839014
-1.3921175 -1.1340989 0.34486693 -0.108464725 -0.35581595 -0.26196605 0.089613765 -0.3005155
-1.3087568 -0.9561134 0.61113364 0.10413643 -0.46449316 -0.8008069 -0.07314066 0.17198995
0.64722663 1.6610072 -1.2609391 0.07254739 0.99617267 0.053386413 0.075863495 0.059848234
-0.2701788 3.46606 0.25880364 0.282985 -2.3153079 -0.677174 -0.2442887 0.58840054
-0.101849034 0.78518486 -0.04831584 0.09503041 -2.4898877 -2.1962743 -1.7177659 1.6383613
-0.5355785 2.747952 1.0332916 0.81378794 -2.0390885 0.035193436 -0.05564473 2.056278
0.16847147 0.27784777 -0.34770516 0.021276142 -0.26970124 -1.0522127 2.454077 -2.5697129
-0.6593029 -0.6278994 0.02748496 -0.31690276 -1.9929918 -1.0518917 0.48681822 -2.249878
0.32585698 0.3043746 -0.04776654 -0.4658827 -0.54059505 -0.27990243 0.20749298 -0.9280614
-0.35146078 0.9363418 -0.20504402 0.5559431 0.7518072 0.33080664 -0.76745045 1.0745585
0.28185695 1.7395176 -0.04757403 -0.54318184 -0.55639255 -0.42054516 -0.24946027 0.3078332
-0.15956771 -0.78364897 -0.49231273 -0.5929403 0.07811045 0.20156063 0.008477809 1.1309519
-0.014258396 -0.8530752 0.021553006 0.6176842 -0.35809076 0.06032175 -0.58994895 0.51565963
0.32848793 -1.1667166 -0.066389546 0.7177103 -0.70539504 0.37197745 -0.45748574 -0.37455687
0.026308667 -0.39927208 -0.45649216 0.7962604 0.28485397 1.1946207 1.138579 -1.3650774
0.4159502 -0.107774965 -0.13222195 -0.72787917 -0.52284473 -1.427562 -0.45816758 -0.07677603
00000000: b003 61be 5a4a 323f 6eb3 a23f 6962 febe
00000010: 9e87 c6bf 089a 30bf 4cd4 35be 917a 50be
00000020: fca2 903d a810 8dbf 0775 503f ab16 00bf
00000030: a159 0cbf 42e4 09bf 7c53 013f 4705 e8be
00000040: b235 023f 4d8b 433f 3538 01c0 8cee 933f
00000050: 20a5 ecbe 3d78 67be 8ee4 09bf 09ea 653f
00000060: 9523 f53e db1e 533f a14c 8dbf 5163 8d3f
00000070: 745c 533e 2a8d 113f f9e3 e53e 1b4d e73d
00000080: 3aba a13e bbba e1be 567f a4be e65f 263f
00000090: 58aa 843f 8137 d83f 50db e5bd 2cee 3dbe
000000a0: a007 bd3d b787 923c bd4a 8a3e 9174 823e
000000b0: 00c6 1ebf 9eb8 aebf 7d38 49bf 7d10 233f
000000c0: ddec 53bf 2dcb a0be d620 58be 9a9a 033f
000000d0: d6a2 b4bf 9fa7 0bbf b2c2 e6be 3e91 3abe
000000e0: 3373 b6be 3221 7d3f 3d21 493f 5007 4b3e
000000f0: 6bcf 4fbf cd9c 133f 8641 02be 2789 8ebe
00000100: e830 b2bf 272a 91bf 6692 b03e c122 debd
00000110: 822d b6be 6a20 86be 6c87 b73d 2bdd 99be
00000120: 5885 a7bf d9c3 74bf 4173 1c3f 7b45 d53d
00000130: 0cd2 edbe ae01 4dbf c5ca 95bd 221e 303e
00000140: a5b0 253f e29b d43f 7466 a1bf ba93 943d
00000150: 2c05 7f3f b6ab 5a3d 525e 9b3d 6c23 753d
00000160: e054 8abe edd3 5d40 e981 843e 69e3 903e
00000170: 012e 14c0 465b 2dbf d126 7abe 6ba1 163f
00000180: 3a96 d0bd e001 493f d5e6 45bd 4e9f c23d
00000190: 525a 1fc0 c28f 0cc0 c1df dbbf d3b5 d13f
000001a0: ac1b 09bf 72de 2f40 e642 843f 6854 503f
000001b0: 6d80 02c0 fe26 103d baeb 63bd 0f9a 0340
000001c0: c983 2c3e 1042 8e3e 6906 b2be 4e4b ae3c
000001d0: 4816 8abe e8ae 86bf 990f 1d40 2d76 24c0
000001e0: 13c8 28bf 04be 20bf 2428 e13c 1441 a2be
000001f0: 5b1a ffbf 63a4 86bf 3d40 f93e 00fe 0fc0
00000200: bad6 a63e fdd6 9b3e d9a6 43bd 2d88 eebe
00000210: 7064 0abf 5f4f 8fbe 0a79 543e 6f95 6dbf
00000220: abf2 b3be 19b4 6f3f 0ff7 51be 4952 0e3f
00000230: 7076 403f 7d5f a93e a277 44bf 228b 893f
00000240: 8e4f 903e 83a8 de3f fcdc 42bd f70d 0bbf
00000250: be6f 0ebf b251 d7be 8372 7fbe 509c 9d3e
00000260: b865 23be 389d 48bf 6a10 fcbe efca 17bf
00000270: 5ff8 9f3d e965 4e3e 82e6 0a3c 08c3 903f
00000280: 0c9c 69bc 2363 5abf ee8f b03c 8d20 1e3f
00000290: ac57 b7be f013 773d e506 17bf 4502 043f
000002a0: 922f a83e f856 95bf 3ef7 87bd ddbb 373f
000002b0: c594 34bf d473 be3e 923b eabe ebc5 bfbe
000002c0: 4685 d73c 646d ccbe 57b9 e9be b9d7 4b3f
000002d0: 61d8 913e 55e9 983f f5bc 913f dbba aebf
000002e0: 6df7 d43e 1fb9 dcbd 3165 07be 4a56 3abf
000002f0: 27d9 05bf 5aba b6bf f194 eabe c03c 9dbd

gru.bias_ih_l1 f4 [24]
0.42720714 -0.07599515 -0.28625813 -0.1517156 -0.1377729 -0.110286586 0.33947015 0.16657633
0.9995004 1.1456999 -0.024886 0.41844013 0.26470634 0.84344804 -0.2725002 0.7437039
-0.54436046 -0.2299913 0.04054426 0.21691835 0.2646929 0.2375836 -0.14020878 0.03648068
00000000: e5ba da3e 58a3 9bbd 6d90 92be 565b 1bbe
00000010: 5714 0dbe efdd e1bd 08cf ad3e fc92 2a3e
00000020: 42df 7f3f 4ba6 923f badd cbbc c93d d63e
00000030: 9787 873e 36ec 573f 2585 8bbe 6163 3e3f
00000040: 355b 0bbf d782 6bbe bd11 263d d81f 5e3e
00000050: d485 873e 1e49 733e e492 0fbe c46c 153d

gru.bias_hh_l1 f4 [24]
0.47768736 0.23634157 0.10688829 -0.029422741 -0.015925812 -0.35699773 0.52200985 0.057982564
0.56888574 0.98037493 0.51656556 0.6238429 0.72895604 0.7716265 -0.1988337 0.73987067
-0.550773 -0.027801776 -0.48282084 -0.1970135 -0.2281318 0.5399957 0.16965665 -0.061451998
00000000: 7093 f43e 8603 723e 3fe8 da3d f607 f1bc
00000010: d976 82bc 68c8 b6be 70a2 053f 207f 6d3d
00000020: 7fa2 113f daf9 7a3f a43d 043f 2bb4 1f3f
00000030: dd9c 3a3f 5089 453f 109b 4bbe 2a68 3d3f
00000040: 76ff 0cbf 8dc0 e3bc 4b34 f7be e8bd 49be
00000050: 629b 69be 283d 0a3f 79ba 2d3e 17b5 7bbd

fc.weight f4 [1, 720]
-0.15187702 -0.28813526 -0.79777175 0.085736886 0.2918369 -0.018845448 0.020711476 0.19785932
-0.11759607 0.0759401 0.35802 0.08552211 -0.14812484 -0.259904 0.11891694 0.007373205
-0.1373619 0.24011959 0.10515553 -0.10457887 0.04777394 -0.028169988 -0.07523452 0.016959688
-0.11712427 0.20617731 0.15854296 0.09892665 0.032334566 -0.014241139 -0.016164593 -0.39418232
-0.120786965 -0.093806684 -0.01647986 -0.2177385 0.2209024 0.23133828 0.11200586 0.28410783
-0.06446649 0.005624758 0.03040433 0.1498181 -0.31573075 0.06146928 -0.04794926 -0.026979333
-0.07501503 0.050265435 -0.038024005 0.10722499 0.124927506 -0.1958767 -0.033594206 0.038852725
-0.022816904 -0.21361426 0.34037042 -0.29059848 0.08056915 0.099474065 -0.030247044 -0.17121749
-0.005027015 -0.03361003 -0.045664385 0.3373853 -0.11235508 0.12877326 -0.054352418 -0.08186373
0.005680622 -0.009334394 -0.050188888 -0.13634284 0.21216404 -0.1047287 0.06208503 0.044215478
-0.042960282 -0.04668345 -0.03359335 0.04994492 -0.13063598 0.11315651 0.19824642 0.28874305
-0.05276696 0.030451704 -0.12529941 -0.22050302 0.19276199 -0.1446213 -0.12879118 -0.093661465
-0.0046361443 0.07640201 -0.0346567 -0.1286766 0.06218935 -0.3182048 -0.08511982 -0.31597248
-0.01920464 -0.0542216 -0.01384246 0.21124844 -0.1692438 0.041713316 0.005978207 0.30561978
-0.027812129 -0.023572542 0.007012073 -0.020757876 -0.054787815 -0.037986528 0.002003244 -0.13643786
-0.024426285 -0.0839865 -0.05516764 0.10894476 -0.14781259 0.17551412 0.05366539 -0.08737044
-0.035345137 -0.01374327 -0.06744999 0.16993889 -0.024177032 -0.12966277 -0.02175818 -0.1555658
-0.06975088 -0.047057487 0.010058263 0.21044914 -0.042528067 0.11808824 -0.06774195 0.1821619
-0.012564219 0.028516745 0.21039015 -0.13091353 0.038783204 -0.008059219 0.010171524 -0.1672765
-0.03341093 0.029043278 0.010181941 -0.16485415 0.28174177 -0.28410196 0.016505169 0.005315516
-0.050049774 0.023505244 -0.10148051 -0.11485849 0.17990886 0.18222828 0.11246654 0.1600656
-0.05840938 -0.05969117 -0.18508792 0.17341165 -0.36810753 -0.034363132 -0.050732188 0.038239025
-0.026400287 -0.06927255 0.22280046 -0.0038452279 0.15507558 0.08467005 -0.007202766 0.19313958
-0.026299337 -0.07736149 0.07644941 -0.033778865 -0.36486593 0.00644156 -0.031383548 -0.14154817
-0.020772435 -0.06901058 0.04845249 0.021647112 0.07311132 -0.06344433 0.12191709 -0.1322424
-0.042921502 -0.08473051 -0.14337516 -0.14459673 0.077080175 0.054636672 -0.049427077 -0.08583469
-0.025879813 -0.034489844 0.04239417 0.14170146 0.16720735 -0.11139582 -0.09047056 0.26923206
-0.02550039 0.016917242 0.097860456 0.12237303 -0.22081472 -0.14596573 -0.15779229 -0.24529304
-0.027407704 -0.0056493543 0.09725722 -0.2156699 0.08792237 0.14300102 0.050406493 0.010123883
-0.07316084 0.05413726 -0.06771677 0.13993098 -0.30000234 0.30004817 0.14407536 -0.14897522
-0.032963634 0.017759584 -0.15754145 0.07996874 -0.13581322 -0.009630957 0.07127565 -0.34240898
-0.06745961 0.024050258 0.09572544 0.063617274 0.2430312 -0.065091 -0.0063508414 0.3274984
00000000: a685 1bbe 7786 93be c53a 4cbf d296 af3d
00000010: a56b 953e c561 9abc 1dab a93c a29b 4a3e
00000020: 35d6 f0bd 7c86 9b3d 664e b73e 3726 af3d
00000030: 0aae 17be 2312 85be ba8a f33d ed9a f13b
00000040: 99a8 0cbe e9e1 753e c85b d73d 722d d6bd
00000050: 9bae 433d bfc4 e6bc 8e14 9abd 0bef 8a3c
00000060: d9de efbd 2520 533e 1659 223e 0e9a ca3d
00000070: 4071 043d ab53 69bc 9c6b 84bc 44d2 c9be
00000080: 285f f7bd b81d c0bd c500 87bc d7f6 5ebe
00000090: 3d34 623e f1e3 6c3e 5463 e53d 9576 913e
000000a0: 0207 84bd e44f b83b 8012 f93c ea69 193e
000000b0: 76a7 a1be 36c7 7b3d 7166 44bd c303 ddbc
000000c0: 7ba1 99bd 21e3 4d3d 0fbf 1bbd c798 db3d
000000d0: fed9 ff3d e793 48be 149a 09bd 0924 1f3d
000000e0: 84ea babc b2bd 5abe 0845 ae3e 53c9 94be
000000f0: 7001 a53d 0fb9 cb3d a6c8 f7bc a353 2fbe
00000100: a9b9 a4bb acaa 09bd 940a 3bbd c4bd ac3e
00000110: 6c1a e6bd 23dd 033e a4a0 5ebd 2ca8 a7bd
00000120: 8324 ba3b 49ef 18bc dd92 4dbd 759d 0bbe
00000130: 8841 593e 007c d6bd df4c 7e3d 4a1b 353d
00000140: 1ff7 2fbd 2537 3fbd 2e99 09bd 0b93 4c3d
00000150: 70c5 05be 9abe e73d 1c01 4b3e 21d6 933e
00000160: 2b22 58bd da75 f93c 7d4e 00be 8bcb 61be
00000170: 6663 453e 9b17 14be d6e1 03be 95d1 bfbd
00000180: ccea 97bb a878 9c3d 2ff4 0dbd ccc3 03be
00000190: 43ba 7e3d bdeb a2be 4d53 aebd 25c7 a1be
000001a0: 0d53 9dbc 7817 5ebd 7ccb 62bc 8351 583e
000001b0: 3f4e 2dbe 95db 2a3d d6e4 c33b 327a 9c3e
000001c0: 43d6 e3bc 341b c1bc 88c5 e53b 6c0c aabc
000001d0: 3069 60bd c397 1bbd db48 033b 5eb6 0bbe
000001e0: a219 c8bc 1d01 acbd 77f7 61bd 6e1e df3d
000001f0: 2f5c 17be f9b9 333e 3dd0 5b3d 46ef b2bd
00000200: 10c6 10bd 742b 61bc 3823 8abd 7604 2e3e
00000210: e90e c6bc 51c6 04be 363e b2bc a44c 1fbe
00000220: 8dd9 8ebd 5abf 40bd 6acb 243c fb7f 573e
00000230: e931 2ebd 3fd8 f13d 4bbc 8abd a688 3a3e
00000240: 27da 4dbc f39b e93c 8470 573e 320e 06be
00000250: 23db 1e3d d10a 04bc 77a6 263c 884a 2bbe
00000260: e6d9 08bd 2bec ed3c 28d2 263c 87cf 28be
00000270: 7540 903e d075 91be d935 873c c82d ae3b
00000280: fe00 4dbd 128e c03c 03d5 cfbd ee3a ebbd
00000290: 073a 383e 0d9a 3a3e db54 e63d 3de8 233e
000002a0: ad3e 6fbd ba7e 74bd b087 3dbe d392 313e
000002b0: 9778 bcbe 5bc0 0cbd 8ecc 4fbd 86a0 1c3d
000002c0: 6a45 d8bc c4de 8dbd ce25 643e 3800 7cbb
000002d0: 22cc 1e3e 7e67 ad3d 2e05 ecbb 62c6 453e
000002e0: b571 d7bc b36f 9ebd 8291 9c3d b55b 0abd
000002f0: b5cf babe b913 d33b 098c 00bd 01f2 10be
00000300: f42a aabc 6b55 8dbd 1e76 463d 4955 b13c
00000310: 63bb 953d 1aef 81bd abaf f93d 8d6a 07be
00000320: 75ce 2fbd 3187 adbd f0d0 12be 2a11 14be
00000330: 36dc 9d3d b4ca 5f3d 0c74 4abd 19ca afbd
00000340: e701 d4bc 3945 0dbd 82a5 2d3d 301a 113e
00000350: 6738 2b3e 7e23 e4bd a148 b9bd c9d8 893e
00000360: 32e6 d0bc 0796 8a3c 106b c83d b69e fa3d
00000370: 411d 62be 0a78 15be 4d94 21be 192e 7bbe
00000380: 1f86 e0bc 381e b9bb cb2e c73d 92d8 5cbe
00000390: a510 b43d dc6e 123e 0a77 4e3d a5de 253c
000003a0: 5ad5 95bd 08bf 5d3d 17af 8abd 114a 0f3e
000003b0: e899 99be ea9f 993e 7e88 133e f68c 18be
000003c0: e004 07bd 8c7c 913c 8c52 21be a7c6 a33d
000003d0: 9f12 0bbe 29cb 1dbc f8f8 913d 3b50 afbe
000003e0: 4428 8abd 0c05 c53c b30b c43d c649 823d
000003f0: 2cdd 783e 6e4e 85bd b81a d0bb dfad a73e
